…
Layer (type:depth-idx)                                  Output Shape              Param #
=========================================================================================================
SwinCAR                                                 --                        --
├─SwinTransformerSys: 1                                 --                        --
│    └─ModuleList: 2-1                                  --                        --
│    └─ModuleList: 2-2                                  --                        --
│    └─ModuleList: 2-3                                  --                        --
├─SwinTransformerSys: 1-1                               [8, 2, 224, 224]          --
│    └─DoubleConv: 2-4                                  [8, 48, 224, 224]         --
│    │    └─Sequential: 3-1                             [8, 48, 224, 224]         22,320
│    └─MaxPool2d: 2-5                                   [8, 48, 112, 112]         --
│    └─PatchEmbed: 2-6                                  [8, 3136, 96]             --
│    │    └─Conv2d: 3-2                                 [8, 96, 56, 56]           4,704
│    │    └─LayerNorm: 3-3                              [8, 3136, 96]             192
│    └─Dropout: 2-7                                     [8, 3136, 96]             --
│    └─ModuleList: 2-1                                  --                        --
│    │    └─BasicLayer: 3-4                             [8, 784, 192]             299,190
│    │    └─BasicLayer: 3-5                             [8, 196, 384]             1,188,204
│    │    └─BasicLayer: 3-6                             [8, 49, 768]              4,735,704
│    │    └─BasicLayer: 3-7                             [8, 49, 768]              14,183,856
│    └─LayerNorm: 2-8                                   [8, 49, 768]              1,536
│    └─Up1: 2-9                                         [8, 384, 14, 14]          --
│    │    └─Upsample: 3-8                               [8, 768, 14, 14]          --
│    │    └─DoubleConv: 3-9                             [8, 384, 14, 14]          5,310,720
│    └─Up2: 2-10                                        [8, 192, 28, 28]          --
│    │    └─Upsample: 3-10                              [8, 384, 28, 28]          --
│    │    └─Recovery_CoordAtt: 3-11                     [8, 576, 28, 28]          84,744
│    │    └─SignleConv: 3-12                            [8, 192, 28, 28]          995,904
│    └─Up3: 2-11                                        [8, 96, 56, 56]           --
│    │    └─Upsample: 3-13                              [8, 192, 56, 56]          --
│    │    └─Recovery_CoordAtt: 3-14                     [8, 288, 56, 56]          21,636
│    │    └─SignleConv: 3-15                            [8, 96, 56, 56]           249,120
│    └─Up4: 2-12                                        [8, 48, 112, 112]         --
│    │    └─Upsample: 3-16                              [8, 96, 112, 112]         --
│    │    └─Recovery_CoordAtt: 3-17                     [8, 144, 112, 112]        5,634
│    │    └─SignleConv: 3-18                            [8, 48, 112, 112]         62,352
│    └─FinalUp: 2-13                                    [8, 24, 224, 224]         --
│    │    └─Upsample: 3-19                              [8, 48, 224, 224]         --
│    │    └─DoubleConv: 3-20                            [8, 24, 224, 224]         15,696
│    └─Conv2d: 2-14                                     [8, 2, 224, 224]          48
=========================================================================================================
Total params: 27,138,189
Trainable params: 27,138,189
Non-trainable params: 0
Total mult-adds (G): 42.64
=========================================================================================================
Input size (MB): 4.82
Forward/backward pass size (MB): 1978.68
Params size (MB): 108.55
…
